models/model_weights.pth (torch, 661114 bytes, 102 tensors)

node_encoder.weight f4 [64, 1]
00000000: 440f 293f e218 ff3e bdd5 ba3e 7589 65bf
00000010: a197 9cbd 1dfc 703e f9e8 d8bc 4e79 8f3e
00000020: dd1e 79bf de96 0fbf ea8a 2c3f da84 df3e
00000030: c7f2 6abe dd3f 603d cd18 adbe 1386 403f
00000040: a45d d3be 6316 e83d f0a2 e93e 5462 1e3f
00000050: 2f8c 5bbf 7d8f dbbe 1b41 11be 3618 15be
00000060: bf1f 323f 6c6e d5be f207 5bbf 22aa fbbd
00000070: c315 f83e 6e90 47bf 64df 343f c1c2 c03e
00000080: 58d6 6b3e 07ac 613f b9fb 5fbf 73ed 383d
00000090: 60e0 cb3e 2242 54be ab51 01be d846 03bf
000000a0: a4ae 4ebf 2f9b d13e 8631 d33d 791c 77bf
000000b0: dc7a 223f 0b95 57bf f185 1cbf bbc1 3bbf
000000c0: 83bf 833f 5cfa 7e3f c791 a73e 4eb3 a33e
000000d0: d64b 10be 7bd3 1f3e 455d ccbe 908d febe
000000e0: 2590 debd 1d40 623e fdb2 a5be 2cf2 56bf
000000f0: 4c0e f0be 4765 023f acd7 723d b3c9 2cbe
0.6603892 0.49823672 0.36491194 -0.8966287 -0.076461084 0.23533674 -0.026478278 0.28022236
-0.9731272 -0.5608958 0.67399466 0.43656045 -0.22944175 0.054748405 -0.33807984 0.7520458
-0.4128238 0.11332395 0.45632124 0.61868787 -0.8576078 -0.4288291 -0.14184992 -0.14560017
0.6957969 -0.41685808 -0.85559 -0.1228831 0.48454103 -0.7795476 0.7065337 0.37648585
0.23030984 0.8815312 -0.87493473 0.045148324 0.39819622 -0.20728353 -0.1262881 -0.51279974
-0.8073523 0.40938708 0.1031218 -0.9652782 0.6346872 -0.84211797 -0.6114188 -0.73342484
1.029282 0.9960077 0.32728407 0.31972736 -0.14091429 0.15608017 -0.3991491 -0.4971738
-0.10867337 0.2209477 -0.3236312 -0.83963275 -0.46885908 0.50935787 0.059287712 -0.16873817

node_encoder.bias f4 [64]
00000000: c9d7 16bf b48a c1be ad0d 2fbf 03b6 47be
00000010: a0b4 9cbe bd4d 95be 6237 693f 3f4a 7c3f
00000020: 39b5 253d 6bbd 543f 0cd1 2fbf 06e3 bf3e
00000030: bd07 2dbf dc01 53bf af04 7bbf 05e4 07bf
00000040: 1dd0 363e fcff 5d3e 5d67 fd3e 28cf 30be
00000050: afec 2e3e 8712 3a3e 6634 45bf 2e35 d83e
00000060: c53b bc3e cf80 95be 5b84 823e 9201 dbbe
00000070: 58d5 cdbe 40cd f3bd 3c21 44bf 1a2d 04bf
00000080: 3bb4 5f3e 1359 a7be d012 1abf 5f7b 68bf
00000090: 7d47 c53e c4a5 65be 61a8 67bf b5f3 513f
000000a0: 5e0c 38bf f990 333f 4675 f7be b06c 27bf
000000b0: 842a 2e3f 1790 ce3e 23ef cdbe 1b54 9ebe
000000c0: 00d1 d0be e9b2 973e a770 dc3e 5511 bdbd
000000d0: 56b1 a8be c0cc 84be eb9a 833e 0450 5dbe
000000e0: 51c7 90be 79e9 5abe e007 b6be 7993 14bf
000000f0: ec1f 143f c42c 30bf 0546 e73e 5ac7 59bf
-0.5892301 -0.37801135 -0.6838024 -0.19503026 -0.30606556 -0.29160872 0.9110013 0.9855079
0.04045603 0.8310153 -0.68678355 0.37477893 -0.6758993 -0.8242471 -0.9805402 -0.53082305
0.17852826 0.21679682 0.49492922 -0.17266524 0.17082475 0.1817113 -0.7703308 0.42228073
0.3676435 -0.29199836 0.25491604 -0.42774636 -0.4020183 -0.11904383 -0.7661321 -0.5163132
0.21846096 -0.32685146 -0.60184956 -0.9081325 0.38531104 -0.22426516 -0.904913 0.8201249
-0.7189387 0.70143086 -0.4833166 -0.6540022 0.68033624 0.40344307 -0.4022151 -0.30923542
-0.40784454 0.29628685 0.43054697 -0.092318214 -0.32947797 -0.25937462 0.2570413 -0.21612555
-0.28277066 -0.21378125 -0.35552883 -0.58037525 0.5786121 -0.68818307 0.45170608 -0.8506981

convs.0.nn.0.weight f4 [64, 64]
00000000: 8984 8d3d 9c96 423d 7115 99bc d2f8 be3c
00000010: 1c04 ea3d 8c6d 803d 358b 7e3c 889b 36bd
00000020: 0dd5 09be 8fff dcbd 858f 8f3d 5001 87bd
00000030: 583d a1bd 55e2 69bd b71d ce3c 607e 9b3d
00000040: 6200 49be 7c09 2b3d d54f 1d3d 1388 ca3d
00000050: 48d8 d4bd 9430 6c3d 5ea8 0e3e 870d af3c
00000060: 3fa7 db3d 5806 6d3c dfe2 a03d 2969 71bd
00000070: 80c3 3f3e 6c75 09bd 96e2 4a3e 1ef5 ef3d
00000080: b26b 183e 9787 18bd b4c4 cebd e1dd ccbc
00000090: 2d63 aa3d 2a4f 37be d0f5 9cbd d649 4fbd
000000a0: 0ece 86bd 9a52 1b3d 497a 57bd 1330 c6bd
000000b0: 892d b83d f9a1 9abd f80b f83c 994b b43d
000000c0: 7f1d 2a3e eaf6 2bbd dded 59bd ac0b 39bd
000000d0: 781f e6bd 0a9a d83c 527e 32be e59b 403c
000000e0: 4e26 ae3d 5492 d2bc 4d1a 063e 32d9 8c3d
000000f0: 5e3d 21bd 1641 223e a18c ce3d 2b3d a8bd
00000100: 0801 8dbd e753 1bbe 85fb 92bd 48c5 bfbc
00000110: c6a9 10be 9835 0f3d 87d2 11bd 79e0 b33c
00000120: 43dd 9a3d 6184 dd3d 028c 0d3d 3561 04be
00000130: 2005 e13c 158c 9ebb 0bfb 59bd aff1 cfbc
00000140: 93ba 77bd 81ed c2bd 4561 e33c 4dea d93d
00000150: ba9f 77bd 53b1 9dbd b329 f3bc fa77 00bd
00000160: 1128 1fbe 44bd cb3d d766 ac3d 6af7 45bc
00000170: e451 adbd 0e6a 263b aa35 46bd 8f67 aebd
00000180: bb40 a0bd 42f4 a6bd 2779 173d 3238 cabd
00000190: 26d9 a0bd e61b 91bd 94b4 b8bd 3d94 11bd
000001a0: c01c cfbd b3a8 9b3d e719 7c3b f138 cbbd
000001b0: 58f7 8bbc f0d4 1c3d fe9a 25bc a0fc debd
000001c0: 4460 903d 2f84 a43d 2450 b73d 4e5a c73c
000001d0: 8288 9dbd 60e6 cabc d97d 61bd 0172 94bc
000001e0: 0c5e 5ebd eb74 953d 0375 0e3e b412 fbbc
000001f0: 9bed 5d3d c728 5fbd f8a4 9f3d 61a6 64bd
00000200: c88c d93c 6671 a73d be6b 91bd ae68 a5bd
00000210: 4c82 b83d 102e ec3d 78aa a9bc 4042 41bc
00000220: 742b 46bd 42d4 8a3d 0ab9 973d 1056 e1bc
00000230: 7084 f3bd c0b1 2d3d d827 f43d 52a8 b43d
00000240: 9c51 be3d 3008 39bd f02e 6dbd f0a0 34bd
00000250: 4872 58bd 6cd8 bbbd 74bf 99bd d8d0 b13d
00000260: 4859 f93c 78a8 173d d66e b1bd 8e5d b33d
00000270: 0043 a13d 36a2 cdbd 4832 e23d 805c ebbb
00000280: 5872 803c 1e1c 9dbd e43b 6abd 00d0 963a
00000290: e8b2 90bd b493 4e3d f8a5 c53c 18f5 8abd
000002a0: 22aa df3d 2e77 f13d 883b 973c 2838 833d
000002b0: e467 d4bd 1c61 133d 56c8 8b3d 807d cf3a
000002c0: b672 d83d 28db 95bd 861c a9bd 90ec b1bd
000002d0: e0be ac3d 949a 75bd 74bf 24bd 3274 8fbd
000002e0: 58c3 c8bc 329a e63d a63a b7bd 063a e5bd
000002f0: 4c04 0ebd 34c5 7f3d 145f eabd 88ff 6dbd
00000300: 8b8e 3a3d 510d 2f3e 0d18 56bd d308 91bd
00000310: 6240 3c3e 44a6 a8bc 962a d23d edb6 033c
00000320: 6524 54bc b92e 4abd e629 fdbb 2c36 1d3e
00000330: 4b09 6cbc e6f6 3c3e d8ab 18bd b246 823a
00000340: a2ae 2ebe 485a 92bc b281 98bd 1a8c fb3d
00000350: 7282 dabd 92dc 963c 7b37 c8bd eeac b4bd
00000360: 9cfa ec3d acc0 ee3d 51a2 b3bd f674 df3d
00000370: 0083 423d e6eb 05bd a445 d53d 82f2 8abd
00000380: 73f7 163e 63f1 203e 9557 eebd 9570 93bd
00000390: 6569 84bd 3d7f a3bb 319c b5bc 531a 533d
000003a0: 7535 d03c af82 cbbd 0e8b bc3d b39a b73c
000003b0: e02c 083e c2b7 64bd dcfe 24bd fa05 b7bc
000003c0: 6d59 f33c 66fe a73d 7a01 293c e627 2c3d
000003d0: 687f ecbc 3f0b bbbd 0408 0ebd 1291 fb3c
000003e0: ecc0 863d fc03 473e 531e cb3d 0546 ebbd
000003f0: bd56 d23d 0337 8fbd c34c 8abd 9d13 ebbd
0.06910045 0.047506914 -0.018686982 0.023312006 0.11426565 0.062708944 0.015536119 -0.04458192
-0.13460179 -0.107909314 0.07009796 -0.06592047 -0.078730285 -0.057100613 0.025160654 0.075924635
-0.19629052 0.041757092 0.038406212 0.09889235 -0.10392815 0.057663515 0.13931414 0.021368755
0.10725259 0.0144668445 0.07855772 -0.05893818 0.18726921 -0.033559248 0.19812998 0.11716674
0.14884833 -0.037238684 -0.10096112 -0.025008144 0.083196975 -0.17901292 -0.076640725 -0.050607525
-0.065822706 0.037920572 -0.052606855 -0.09677138 0.0899306 -0.07550425 0.030279145 0.088034816
0.16612814 -0.041983522 -0.05320536 -0.045177147 -0.11236471 0.026440639 -0.17431 0.011755918
0.085034 -0.02570454 0.1309597 0.06877364 -0.039365165 0.15845141 0.100854166 -0.08214792
-0.06884962 -0.15168725 -0.0717688 -0.0234095 -0.14127263 0.03496322 -0.035601165 0.021957623
0.075617336 0.10816265 0.03455735 -0.12927707 0.027468264 -0.0048384764 -0.05321793 -0.025383798
-0.060480665 -0.095179565 0.027756343 0.106403925 -0.06045506 -0.076998375 -0.02968297 -0.03136442
-0.15542628 0.09948209 0.08418053 -0.012082914 -0.08462885 0.0025392803 -0.04839102 -0.08515846
-0.07824846 -0.08152057 0.036980774 -0.09874 -0.07853918 -0.07085399 -0.090188175 -0.03554176
-0.101129055 0.07600536 0.0038467587 -0.0992297 -0.017085716 0.03828901 -0.010107754 -0.10888028
0.07049611 0.080330245 0.089508325 0.024335053 -0.076920524 -0.024768054 -0.05505166 -0.018120768
-0.05428891 0.07297691 0.13911824 -0.030648567 0.054181676 -0.054482248 0.07795137 -0.055822734
0.026556388 0.08175926 -0.07100628 -0.08076607 0.09009227 0.11532223 -0.020711169 -0.01179558
-0.048381284 0.06778766 0.0740834 -0.027506858 -0.11890495 0.042405844 0.11921662 0.08821167
0.092929095 -0.045173824 -0.05790609 -0.044098794 -0.052843362 -0.091721386 -0.0750722 0.08682412
0.03043808 0.0370259 -0.086637184 0.087580785 0.07874107 -0.10040705 0.11044747 -0.0071826577
0.015679523 -0.076713786 -0.057186022 0.0011506081 -0.07065374 0.05043383 0.024126992 -0.06785029
0.10921122 0.1179031 0.018461004 0.06407195 -0.10371378 0.035981283 0.068253204 0.0015830249
0.105687544 -0.07317191 -0.082573935 -0.08687699 0.08434844 -0.05996187 -0.040221646 -0.07004584
-0.02450721 0.11259879 -0.08946733 -0.11192708 -0.034672067 0.062443927 -0.11443916 -0.05810502
0.045546096 0.17094924 -0.05226903 -0.07081761 0.18383935 -0.020587094 0.10262029 0.008039218
-0.01294813 -0.049360964 -0.007725942 0.15352696 -0.0144065125 0.1845356 -0.037273258 0.0009939282
-0.17058805 -0.017865315 -0.074466124 0.122825816 -0.10669412 0.018415723 -0.09776207 -0.08822046
0.115712374 0.11657843 -0.08771194 0.109109804 0.047488213 -0.032695673 0.104136735 -0.06784536
0.14742832 0.15717082 -0.11637799 -0.07199208 -0.06465415 -0.004989533 -0.022169204 0.051538777
0.025416115 -0.09937035 0.0920621 0.022412634 0.13298368 -0.055839308 -0.040282115 -0.022341717
0.029705727 0.082028195 0.010315293 0.042030238 -0.028869346 -0.091330044 -0.034675613 0.030708823
0.06579766 0.19435114 0.09917893 -0.114879645 0.1027045 -0.069929145 -0.067529224 -0.1147835

convs.0.nn.0.bias f4 [64]
00000000: 7fae 373d d78d a2bd 1802 55bd a132 7cbd
00000010: 70e4 09be 888a debc 50a8 9bbd dc2f 97bd
00000020: cc61 19bd 02fb 29bd 7676 c3bd aa21 26bd
00000030: a845 98bc d08d ae3c df9c d83d 0123 bdbd
00000040: 0287 9abd 06df 1d3d 0ad3 86bd 7ccf 7b3d
00000050: d4a0 41bd b649 8abb e68a c7bd 0073 b33c
00000060: cdaf cf3d 1a72 de3d 0008 95ba 414e b13c
00000070: 4950 c93d 37c3 573c 8052 243c 59a0 493d
00000080: 7a77 e9bd d297 f43c 80f2 30bb d42c 7d3d
00000090: 29f0 723d 55de a03d a8cf cc3c ce26 0ebd
000000a0: 161b 993d 5cdc e03d d9be 553d b17b 7fbd
000000b0: 500e b03c 7d4f e0bd 5e88 933d 9dd4 a8bd
000000c0: 1127 e9bd 20bb 24bc f480 8d3d 9088 c7bd
000000d0: 9847 753d ddcd 983d 354b e1bc 38c9 ce3d
000000e0: 88be e7bd d1c5 ebbd 7c50 93bd de23 90bd
000000f0: 10d4 153d 9d75 e0bd 9235 6c3d da91 83bc
0.044844147 -0.0793721 -0.05200395 -0.06157172 -0.13466048 -0.027165666 -0.076004624 -0.07382175
-0.037446782 -0.041499145 -0.09544079 -0.04055945 -0.018587902 0.021307856 0.10576796 -0.09235192
-0.07545282 0.03854277 -0.06583221 0.06147717 -0.04727252 -0.004220213 -0.0974329 0.021905422
0.10140953 0.10861607 -0.0011370182 0.02164376 0.09829766 0.013169101 0.010029435 0.049225185
-0.113997415 0.02985755 -0.002700001 0.06181033 0.059311066 0.078549065 0.025001362 -0.034704976
0.07475869 0.1097953 0.05218396 -0.06237382 0.0214912 -0.10952661 0.07203744 -0.08243678
-0.113844045 -0.01005438 0.069093615 -0.09742844 0.05988273 0.0746114 -0.027501682 0.10096973
-0.11315638 -0.1151234 -0.071930856 -0.07038091 0.03657919 -0.10959933 0.057668276 -0.016060758

convs.0.nn.3.weight f4 [64, 64]
00000000: 8d0f a4bd ea14 afbc 6473 76bd 77fe f93d
00000010: ac28 7ebd a41c 513d eb3a d6bc 9863 4fbd
00000020: c8da 453d fa5c 83bb d8f5 a03d e0d0 c6bd
00000030: 1215 b73d 6bf1 5abc 94ef bebd 054e b23d
00000040: 3819 79bd 0c60 9cbd b8f3 acba d41d 1f3d
00000050: bb40 f03d 5dbf 503d 063d 84bd 1c57 8e3d
00000060: 8b21 53bd d032 aa3d 46a1 cf3d edb8 f8bc
00000070: 47d0 f53c 93b5 22be 6037 873d 5713 b0bc
00000080: b86e 47bd 4b11 a9bd 0098 8139 0094 4c39
00000090: b88d 67bd 1469 b3bd 2049 653d e366 8e3d
000000a0: f8cd 8c3c 440a af3b 74fa 45bd f511 b53d
000000b0: e082 68bd 6820 653d 5f0e f93d abd1 b63d
000000c0: 7bf4 2ebd a007 5e3d 0aab c3bd 0ad3 0fbc
000000d0: da3d fa3d ab99 013e f42f 6a3d 75ef c9bc
000000e0: d207 d5bd be21 003e 0d06 843d dc97 1cbe
000000f0: 0ede f1bd 5086 9dbd 906b bc3d 766c a93d
00000100: ebc9 0ebe d334 7dbd 403b e1bb 0ef7 40bd
00000110: 1c6d b8bd 400e 8c3b 5eaf 973d 2468 f73d
00000120: 32bf 51bd 78f2 06be 4748 9ebd c6e9 fc3d
00000130: 4012 d53c d002 0b3e b4f1 0abe 66be c23d
00000140: 3c33 903d 2a56 553d dc40 6abd 6a88 f73d
00000150: 48a6 0bbe 7ed8 ffbd a623 85bd 606c eb3b
00000160: e1bc 6bbc 6ef8 983d 6a30 c1bd 61a3 cd3d
00000170: 0da4 47be 608c 15bd 9c4a 75bd 8068 423d
00000180: 3eb2 93bd fddf 30be d073 c33c 4058 9bbd
00000190: 5457 ca3d 82d6 d03d 847d ed3d b2d4 5dbd
000001a0: 642b 8d3d 3f88 be3d 92c6 943d bce0 783b
000001b0: 503a 0e3d ff96 d4bd d8d6 21be dc8f 9f3d
000001c0: 4b23 f9bd 80da 063d 024c 82bd b7cb 943b
000001d0: 8661 c93d 66be 883d 5864 013d 4cf7 bcbd
000001e0: 5a09 e5bd 0cd0 14be 9422 5dbd 0102 ccbc
000001f0: 901b 6fbd c5d2 623d 0074 a43d a1e2 afbd
00000200: f41d 103e ed99 82bd f4d4 7fbd a974 fd3d
00000210: 8035 96bb babc cbbd d10b 2ebd c6c1 983d
00000220: 6519 3a3c 13d9 263d 0283 183e 7d31 23be
00000230: 8ea2 8e3d 1b45 693d ff7e f6bd 6643 df3d
00000240: 0c5c db3d 958c 213b a6cf bdbc 58d4 bbbc
00000250: a3db 163e a35a c03d c69e ad3d 4c81 a3bd
00000260: d0fd ba3d e0eb 9c3b 9249 b3bd 5a0f 193d
00000270: f5fb d33d aa74 15be b87d eb3c cc0f c43d
00000280: 4eeb ef3d 391e ab3d 64b8 39bd 3a1b ce3d
00000290: 1668 fcbd 8c66 f13d d078 fd3c 3ab4 cfbd
000002a0: 2874 9b3c 931a aebd de0b dfbd 1eba 31bd
000002b0: 3624 8d3d 3c91 c3bc 60e1 c2bd c525 9a3c
000002c0: 9a7e cfbd 5034 233d b243 f13d dbae 20bd
000002d0: 0cc2 f33d 944d 053e 05f6 903c 06ca f1bd
000002e0: 74e3 0dbd 3c76 f8bc 04d5 a7bd 587f ff3a
000002f0: a6b5 c83d 7be1 f83d 4cfc 513d 3aa8 c2bd
00000300: cc5c 89bd 7ac9 8f3d 5e47 bcbd 2ea8 bcbd
00000310: 21b0 393d ae1d c03d ec3e 6a3c 7803 3dbd
00000320: 4539 ad3d fc86 88be 6113 0a3c 49ee 693b
00000330: 402b 743b 1e56 08bc 2d6c 173e 2bf0 353c
00000340: a057 edbd 1547 843d 8653 6d3d 30d4 ccbd
00000350: 9965 52be f836 a63c 2a11 e23d 5c34 fdbd
00000360: 0672 f7bd 6004 f6bb 000d 3fba 30e6 03bd
00000370: 2b07 a0bd 2b64 05bd 5ad0 b03d b968 8b3d
00000380: 5465 14bd 81b5 18be 30c2 7d3d f006 53bc
00000390: 1e64 963d 4664 c3bd 1ae3 843d e392 9abc
000003a0: 2e90 99bd bdb4 423d 82ac 76bd a941 083d
000003b0: 8410 5e3d 74a9 44bc 266a 823d 66a1 f9bc
000003c0: 5704 acbd 58d1 58bd 5899 fa3d f3a8 c1bd
000003d0: 6056 153d cd2d 4d3c c421 26bd 6f1a d83d
000003e0: 8030 2fbd d6e6 16be 7c39 d0bb f630 c13c
000003f0: b046 2cbc fa0c a73d 1cdd b9bc 4dbc 863d
-0.080107786 -0.021372277 -0.06016864 0.122067384 -0.062050506 0.051052704 -0.026151141 -0.05063209
0.04830435 -0.0040088864 0.07859391 -0.097078085 0.08939566 -0.013363223 -0.0932304 0.08706287
-0.060815066 -0.07635507 -0.0013195192 0.038846806 0.11731096 0.05096375 -0.06456952 0.069502085
-0.05154566 0.08310473 0.10138182 -0.030361617 0.030006541 -0.15889578 0.06602359 -0.021493597
-0.048689574 -0.082552515 0.00024718046 0.0001951009 -0.056531638 -0.087602764 0.05597794 0.06953218
0.017188057 0.0053418 -0.048334554 0.08841316 -0.056765437 0.055939108 0.12160944 0.0892671
-0.042713623 0.05420649 -0.095541075 -0.008778343 0.122188285 0.12656276 0.057174638 -0.024650315
-0.10401882 0.12512872 0.064464666 -0.15292305 -0.11809932 -0.07691634 0.092002034 0.082726404
-0.13944213 -0.061817955 -0.006873518 -0.04711061 -0.09005186 0.0042741597 0.074064955 0.1208041
-0.05120773 -0.13178432 -0.077286296 0.12349276 0.026009679 0.13575292 -0.13568765 0.09508972
0.07041022 0.052084126 -0.05719076 0.12086566 -0.1363765 -0.124924645 -0.0650094 0.00718455
-0.014388294 0.07469259 -0.094330624 0.10040928 -0.19496174 -0.036510825 -0.059885606 0.04746294
-0.072117314 -0.17272945 0.023858935 -0.07585192 0.09879938 0.10197164 0.11596206 -0.05415792
0.06893042 0.09303331 0.07264437 0.003797575 0.03472358 -0.10380363 -0.15804613 0.07791111
-0.12164935 0.03292322 -0.063621536 0.0045408863 0.09833054 0.066769406 0.031589836 -0.09226856
-0.11183424 -0.14532489 -0.053988054 -0.0249033 -0.058375895 0.055376787 0.08029938 -0.08588148
0.14073926 -0.06377015 -0.062458947 0.12375767 -0.0045840144 -0.09948106 -0.042491738 0.07458834
0.011358594 0.04073436 0.14893726 -0.15936847 0.069645986 0.05695067 -0.12035941 0.10901527
0.10710916 0.0024650444 -0.023170304 -0.022928402 0.14732222 0.093922876 0.08477549 -0.07983646
0.09130442 0.0047888607 -0.08754267 0.037368156 0.10350791 -0.14595285 0.02874647 0.095733255
0.11714803 0.08355374 -0.045341864 0.10063787 -0.1232454 0.117871374 0.030941397 -0.10141797
0.018976286 -0.085011624 -0.10890935 -0.043390386 0.06891672 -0.023872964 -0.09515643 0.018816838
-0.10131569 0.03984481 0.1178049 -0.039229255 0.11902246 0.13017875 0.017695436 -0.11806111
-0.034640744 -0.030329816 -0.081949264 0.0019492907 0.09800272 0.12152382 0.051266 -0.09504743
-0.06707153 0.070208505 -0.091933 -0.09211765 0.045333985 0.09380661 0.014297228 -0.046145886
0.08458189 -0.26665485 0.008427472 0.0035695008 0.0037257224 -0.008321313 0.1478736 0.011104624
-0.11588979 0.0645887 0.057940982 -0.10001409 -0.20546569 0.020289883 0.1103843 -0.123635024
-0.12082295 -0.0075078458 -0.0007288009 -0.032201946 -0.07813867 -0.03256623 0.0863349 0.06807084
-0.036229447 -0.14912988 0.06195277 -0.012880072 0.073433146 -0.0954061 0.06488629 -0.01886887
-0.07498203 0.047535647 -0.06022311 0.033265743 0.05421497 -0.012003291 0.063679025 -0.030472469
-0.08399265 -0.05293402 0.12236279 -0.09456053 0.036459327 0.012523127 -0.040559545 0.10551917
-0.042770863 -0.14736494 -0.006354509 0.023582917 -0.0105149 0.08156772 -0.022688441 0.06578884

convs.0.nn.3.bias f4 [64]
00000000: fa42 0c3e 5df1 f83d 7029 fc3d e277 ec3d
00000010: 1ac9 04be 7f10 24be 2fd5 c0bd 178d 013e
00000020: b625 e3bd ed30 073d f19f d23d cb67 2dbd
00000030: fb8e 033e 729d d1bb 96ea cd3d 68af bdbd
00000040: 05fe c3bd c829 b1bd d864 133c a888 c2bd
00000050: 020a 273e 99cc c5bc a828 b43d ab9d 153d
00000060: 912d 38bd 2ec5 da3d b931 acbd 7a2d c43d
00000070: 9fd2 713d 9253 203e a942 9ebd 516c 8abc
00000080: 4012 87bd 60f4 103e 175c bb3c 8bc2 8e3c
00000090: 5f18 643d e6bf ee3d 2a0c 693d dd63 b23d
000000a0: c30c 48bd c911 28bd 4e06 3abd a165 69bd
000000b0: 9c93 c13d 0d26 14bc d9bb 4fbb 174c 9fbd
000000c0: 4bed 89bc 6a1f 6a3d 4828 123e b292 463e
000000d0: f3f5 123d 4aa5 d0bd 3103 a13d 55c8 babd
000000e0: 4b23 16bd 17e2 e23d e13c 2cbd ce45 0bbd
000000f0: 5098 91bd 8391 063e 5ea1 263d 909f ec3d
0.13697425 0.121554114 0.12312591 0.11546303 -0.12967339 -0.16021918 -0.094156615 0.12651478
-0.11091177 0.033005644 0.10284413 -0.042335313 0.12847511 -0.006396943 0.10054509 -0.09261972
-0.09569935 -0.08650547 0.008996211 -0.09498721 0.16312411 -0.024145411 0.08796817 0.036527317
-0.04496533 0.1068214 -0.08407921 0.095789865 0.059038755 0.1565688 -0.07727558 -0.016897352
-0.06595278 0.14155722 0.02287106 0.01742675 0.055687305 0.116576955 0.056896366 0.08710454
-0.048840296 -0.041032586 -0.04541617 -0.056981687 0.094519824 -0.009042275 -0.003169766 -0.07778185
-0.016836783 0.057158865 0.14273179 0.19391897 0.035879087 -0.101877764 0.07861937 -0.091202416
-0.03665475 0.110782795 -0.042050246 -0.034002118 -0.071091294 0.13141446 0.040681235 0.11553872

convs.0.lin.weight f4 [64, 2]
00000000: c9a4 003f 5744 a03e a906 523e 4b6f 713d
00000010: e9c7 a9bc bd53 d03e a129 6cbc 6086 1c3f
00000020: f404 8c3e 0daa e03e 5751 78bd f12a a5be
00000030: c8a3 e33e 74df 253f 3e29 8abe 9b07 a1be
00000040: 25c9 903d c656 263f 289b 633e c425 aa3e
00000050: 108a 8b3e e3d3 9e3e 9182 4dbe 8099 a8be
00000060: 97c7 0abf 0899 6e3e 44c2 343f 6987 a4be
00000070: 09b7 903e f892 22bf 7b95 02bf 1b81 aa3d
00000080: a4f6 983e 26f2 ffbe a3d8 00bf 6325 3d3f
00000090: 0c8d 113f 8cf5 23bf 091d 0bbf 26b2 003f
000000a0: 6de7 b0be ec62 b23e cb9a 263f 7845 2bbf
000000b0: 7795 b3be 30a5 4cbc 7c76 2f3e 556e dabe
000000c0: 9985 043e ff14 8e3e 9abf eabe ea16 b33e
000000d0: 1ae5 d5be 4d0d 703e e384 893e 5695 45be
000000e0: 87a2 d8bd d23e d6be cf67 883d 1dfc b83e
000000f0: 1d1a 10bf 2262 06be 0371 25bf a66f 9d3e
00000100: a617 0ebf 0a5f 013f 7afd d13e af44 f43e
00000110: 0825 ec3e b38d eb3e 824b 1c3f f2fc 13be
00000120: 7e04 fdbe 5baa 08bf 7e4f 2f3e 81a2 a8bd
00000130: 586f f53d e6ce 0bbf bfd5 aa3e ab2a eabe
00000140: 8934 50be b5e5 9abd c872 31bf f66a 3a3e
00000150: c4a4 d9be f3ff c4be 6a27 32be 7a6b e23e
00000160: 17e1 063f 6c1e 95be f170 813e dda9 febe
00000170: c4ad bcbe 1e99 94be 4f9b f23b 5f02 a7bd
00000180: d99b 2fbf 3366 2b3f a9ce e6be b23b 0dbe
00000190: 7626 a0be 9f77 c53e 681f a93c 7c61 003e
000001a0: ef39 33bf 5467 e3be c085 d63d 08ac 0ebe
000001b0: eb7f c73e 1f88 993e 0c2a 4b3e c9d1 e4be
000001c0: acb2 1d3d f7d3 8f3e 5ba2 c4be 1517 313f
000001d0: 7fd2 8bbe 5c48 003f 3ee6 c3be 682b 05be
000001e0: f330 05be a867 0cbd d2d6 54bc 37c8 d4be
000001f0: aa24 e1bc 18c7 5bbe 9cbc 593e aca1 9cbe
0.5025144 0.3130214 0.20510353 0.058944028 -0.020725207 0.40688887 -0.014414222 0.6114254
0.2734753 0.43879738 -0.060624447 -0.32259324 0.44460893 0.6479409 -0.2698459 -0.31451115
0.07069615 0.64976156 0.22227156 0.33231938 0.2725377 0.31021032 -0.20069338 -0.3292961
-0.542108 0.23300564 0.70608926 -0.3213456 0.28264645 -0.63505507 -0.5100934 0.08325406
0.29875672 -0.49989432 -0.5033056 0.7388517 0.56855845 -0.6404655 -0.5434118 0.5027183
-0.34551564 0.34841096 0.65079945 -0.66902876 -0.3507497 -0.012490556 0.17135042 -0.42662302
0.12941588 0.27750394 -0.45849305 0.3497842 -0.41776353 0.23442574 0.26859197 -0.19295248
-0.10577875 -0.41844803 0.06660425 0.36129847 -0.56289846 -0.13123372 -0.6462557 0.30749243
-0.55504835 0.50535643 0.410137 0.4770865 0.46122003 0.46006545 0.61052716 -0.1445196
-0.4941749 -0.5338494 0.17120168 -0.0823412 0.11984128 -0.54612577 0.333662 -0.45735678
-0.2033254 -0.075633444 -0.6931577 0.18204865 -0.4250852 -0.38476524 -0.17397848 0.44222623
0.5268721 -0.29124773 0.2528148 -0.4973897 -0.36851323 -0.2902307 0.007403768 -0.08154749
-0.6859718 0.6695282 -0.45079544 -0.13792303 -0.31279343 0.38567826 0.020644858 0.12537187
-0.70010275 -0.4441477 0.104747295 -0.13932812 0.3896478 0.29986665 0.19840258 -0.44691303
0.038500473 0.28091404 -0.38405117 0.69175845 -0.27309033 0.5011041 -0.38261598 -0.1300484
-0.13006954 -0.03427854 -0.01299067 -0.41559002 -0.027483303 -0.21462667 0.21263355 -0.30592096

convs.0.lin.bias f4 [64]
00000000: c943 ab3d dfaa 6b3e d72b d7be 8ade 91be
00000010: 2741 303f 1b36 10bf 8bea a53e 3032 dcbe
00000020: 925a 2d3f e1a7 04bf 826c 34bf d876 27be
00000030: 9706 9b3e d20c 353f be5c 97bc 9097 933e
00000040: 2c6e 88bd 13d4 cb3d deb4 a0be d4d3 27be
00000050: 39c8 243d 6938 203f 128d d4be eef0 f53e
00000060: 2dd8 cabd 3b4f e3be a165 d6ba 8619 133f
00000070: cdc9 013f dfbe cc3e 384d 1f3f 3f8f 6dbe
00000080: 9b11 e03e edd1 bb3d 5e48 07bf 593c 723e
00000090: 5b89 ca3e f179 033f e836 94be b5d9 153e
000000a0: ac6c 313e 1e8b 3bbf b315 20be bde3 cdba
000000b0: d3e2 ef3e d1d2 613e 46bd 483e 9b94 99be
000000c0: a53f a03c 3f72 2a3f 9579 edbe ba78 953e
000000d0: cd4c 193f fd45 7ebc bacf 33be 5efd 13be
000000e0: fbcb 97bd 6b17 a9be c2b9 353f 7af0 273f
000000f0: 178d 203f 631a a6be 906f 72be 7f53 d83e
0.08362538 0.23014401 -0.42025635 -0.28490096 0.68849415 -0.5633256 0.32405505 -0.4300704
0.67716324 -0.5181866 -0.7047807 -0.16353929 0.30278465 0.7072269 -0.01847684 0.2882657
-0.066616386 0.09952559 -0.3138799 -0.163894 0.04023001 0.62586075 -0.41513878 0.48035377
-0.099045135 -0.44396386 -0.0016357192 0.5746082 0.5069855 0.39989373 0.622272 -0.23199175
0.43763432 0.091708995 -0.528448 0.23655833 0.3955792 0.5135794 -0.2894814 0.1463383
0.17326611 -0.7325915 -0.15633278 -0.001570813 0.4685274 0.22053076 0.19603452 -0.2999619
0.019561598 0.66580576 -0.46381822 0.2919367 0.59882814 -0.015519616 -0.1755971 -0.1445212
-0.07411953 -0.3302568 0.7098657 0.65601313 0.62715286 -0.32442006 -0.2367537 0.42251202

convs.1.nn.0.weight f4 [64, 64]
00000000: 5bcf 193e 4ad1 99bd 9cfc fa3d 2c69 633c
00000010: b074 dc3c 20c0 3f3c 449c 193e 4946 6a3e
00000020: 6c91 503d 7cbc cd3d f0fe a93d f0ae 8fbb
00000030: 908c 65bc 3bde 023e f31e 83bd 03aa d9bc
00000040: f54c 72bd e2d0 0e3e 97ce 6ebd 4085 543d
00000050: a43e 1e3b 6046 2c3d c0ec 023d fc90 f43d
00000060: d8e9 073d 8b05 02bd 4792 1d3c 5a02 8fbd
00000070: d3be 1bbd dd6c 82bd 342f df3c 61c9 56bd
00000080: c7e5 083d 91ce 5fbd 1daf 21bd 60b2 183d
00000090: 7587 8b3d d5ea 1f3e 60d8 68bc 239d b03d
000000a0: 573f 37bd 2ec8 033e 5391 3bbd e4ee 55bc
000000b0: c389 ddbd 1061 91bd 15f8 cdbd e59d 593c
000000c0: 3709 bdbd 8016 bb3d 6c06 a43d d05b 3a3b
000000d0: d887 62bd eed2 1b3e 0fec 813e 4fbb c63d
000000e0: 071f 903d 6cc5 35bd 9130 203d 660b b93d
000000f0: d7d7 a63c 8c30 c33d 0f89 35bd 811f f0bd
00000100: c925 da3d fc59 27bd cfcc 073e 2c62 7e3d
00000110: fcbd ea3d 1731 74bd 1ee6 483d f787 003e
00000120: 295d cf3b bd03 fb3d 4a5a bc3b 3c30 043e
00000130: 7783 abbd 7dc5 653e 02d4 debd 0fdb 223d
00000140: 99f1 e53d 3d7f 90bc d0c7 983c 83d1 183e
00000150: 2226 d0bc 9aff 0a3e 3f30 243c 5bab 123e
00000160: cd7b 7fbc bca2 bd3d 6763 f03d 1428 52bd
00000170: e0d6 363d 36a7 603c dc8b b43b 58b8 8e3c
00000180: f0c0 003e 6765 563d 6ab8 a9bc e628 fc3d
00000190: f650 7d3d 77b3 923d d264 2d3d 3860 f73b
000001a0: 996c 003e 0d93 833d 0ac0 8f3d e32a 973d
000001b0: cd6d edbd 5a42 03be 0913 71bb 8567 8abd
000001c0: b0c3 2cbd d449 a1bd 7f6f 083d 2a51 0ebe
000001d0: 70cd c83d 0cbf 033e f26a 143e 80ec 7d3c
000001e0: b5e0 703e 3d07 c83d 2d30 cebd 8e1b 36bd
000001f0: 21c0 a5bd 52b4 bfbd 2365 f9bc 07c9 0d3d
00000200: 83ae 1abe 7b9e 4a3d afe2 43bd bb83 a83a
00000210: ad39 503d 8c64 563d dadc 13bd 73e2 013e
00000220: b254 2ebe 3c92 7cbc d626 bdbb 3ab4 97bc
00000230: e587 183e b562 713d 1f6c 473d d86e b0bc
00000240: 366d 363d 534f 043d 4710 fa3d 62a3 c5bd
00000250: 3718 8e3b 40d3 00bb f021 913d 217a 303d
00000260: 8f02 98bd 2085 5f3d 7b25 6ebd c905 03be
00000270: 6be7 f83d 83a7 113e 7180 6c3d 5f83 953d
00000280: 3e7d 573d 9fe0 12be 0cda 04be ec74 653d
00000290: c4cd dcbd 05c7 7a3d 7b2e 923d 51ab 3ebd
000002a0: 6b0e bcbd e6f9 ec3c 13d7 12be 69dd 30be
000002b0: 0de4 b83d 8c04 05bd 6080 cdbd 772f 123c
000002c0: 7284 7cbc b1af 98bc be4f 473d c3d8 d03d
000002d0: b6fa a73c a7a0 083e 1f5a 683e a837 6fbd
000002e0: 8549 d0bc cbbd 163e f274 e5bd 7ccd 8e3d
000002f0: c770 cabd 9116 bf3d 2368 3b3e 41e3 3b3e
00000300: 473b 03be 69da d8bc 06e8 bc3c ee89 f43c
00000310: 3fc0 bbbd f5e6 173d 7174 05be 6bc9 b4bd
00000320: 4dd6 813d 7ce9 f3bc bebe 9ebd 3c91 983d
00000330: 614c ee3b beec a73d 0c44 99ba 1a47 92bd
00000340: cb7b c03d d8be 653d ad0d 18bd b18a 7fbc
00000350: fb9b 0b3e bd9a ce3c 7508 553d 925b a63d
00000360: 93d5 003e f946 453d 3022 043e e216 ea3d
00000370: 6d03 57b8 b52b 8d3d 482a aebd 24e2 2d3d
00000380: 3bfd 913d f6ef e8bd 3f5f 883d abe0 12be
00000390: f096 0f3d c95f dcbc 3241 33bd 9352 0bbe
000003a0: b907 e1bd 535c 433d ef7a 4bbd fb5e 073c
000003b0: 8b71 f93d 989a a7bd cff5 c5bc 13f9 053e
000003c0: 0bbc 36bc 0594 dd3d 4c4d 98bd 4028 143d
000003d0: 8e40 833d 7c45 e0bd 9067 2abe a5ea 333d
000003e0: e20f fabd 3922 bebd db69 f4bd eb3f 203d
000003f0: f0f2 37ba cf5b cd3c 6c8c 08be 60b3 de3d
0.15020506 -0.07510622 0.12255213 0.013880055 0.02691111 0.011703521 0.15001017 0.22878374
0.050919935 0.10045716 0.083005786 -0.004384868 -0.0140105635 0.12780087 -0.064023875 -0.026570326
-0.059155423 0.1394687 -0.05830249 0.05188489 0.0024146223 0.042059302 0.031964064 0.11941716
0.033181995 -0.031743567 0.009617395 -0.069828704 -0.03802378 -0.0636842 0.027244188 -0.052438144
0.033422258 -0.054640356 -0.03947364 0.037279487 0.06812946 0.15616925 -0.014211744 0.086237215
-0.04473814 0.12869331 -0.04579289 -0.013057444 -0.108172916 -0.07098591 -0.100570835 0.013282274
-0.09230273 0.09135151 0.080090374 0.0028436072 -0.055305332 0.15217182 0.2537541 0.09703695
0.07037168 -0.04437773 0.039108817 0.09035377 0.020366592 0.09530744 -0.044320162 -0.11724759
0.10651738 -0.0408573 0.13261722 0.062105343 0.11462018 -0.05961713 0.04904758 0.12551866
0.006328244 0.122565724 0.005748068 0.12909025 -0.08374684 0.22438617 -0.10880281 0.03975969
0.11227722 -0.017638797 0.018649966 0.14923672 -0.025408808 0.13574067 0.010021268 0.1432318
-0.015593481 0.09259555 0.117377095 -0.051307753 0.044638515 0.013711741 0.0055098366 0.017421886
0.125736 0.0523428 -0.020717818 0.12312488 0.06184479 0.071631365 0.042332478 0.007549312
0.12541427 0.06424532 0.070190504 0.07381227 -0.115932085 -0.1281828 -0.0036785027 -0.06758026
-0.04217881 -0.0787541 0.033309456 -0.13898149 0.09804809 0.12865847 0.14493921 0.0154982805
0.23523219 0.097670056 -0.100677826 -0.044459872 -0.08093286 -0.09360565 -0.030443734 0.034615543
-0.15105633 0.049467545 -0.047823604 0.0012856642 0.050836254 0.052341983 -0.036099292 0.1268404
-0.17024496 -0.015415724 -0.005772452 -0.018518556 0.1489559 0.058932025 0.048687097 -0.02153723
0.044537745 0.032302212 0.12210136 -0.096503034 0.0043363827 -0.0019657165 0.07086551 0.04308522
-0.07422363 0.054570317 -0.058141213 -0.12795176 0.121535145 0.14224057 0.05773968 0.07300448
0.052609675 -0.14343499 -0.12973803 0.05601971 -0.10781434 0.061224956 0.07137772 -0.0465501
-0.091824375 0.028927755 -0.14339857 -0.17271961 0.09027872 -0.03247504 -0.10034251 0.008922449
-0.015412437 -0.018638464 0.048660032 0.10197594 0.02050529 0.13342534 0.22690628 -0.058402687
-0.025425682 0.14720838 -0.11203946 0.06972787 -0.09884792 0.09330476 0.18301444 0.18348409
-0.12815581 -0.026471334 0.023059856 0.029850926 -0.091675274 0.037085492 -0.130327 -0.0882748
0.06339703 -0.02977442 -0.07751225 0.07449576 0.0072722887 0.08199452 -0.0011693253 -0.07142468
0.09398612 0.056090206 -0.037122417 -0.015597031 0.1363372 0.02522027 0.05201002 0.081229344
0.12581472 0.048163388 0.12903666 0.11430146 -5.1263185e-05 0.06893102 -0.08504158 0.042451993
0.07128378 -0.11373894 0.06658792 -0.14343517 0.035056055 -0.026901143 -0.043763347 -0.13605718
-0.10987801 0.04769547 -0.049677785 0.008262391 0.1217986 -0.08183783 -0.024165062 0.13083296
-0.011153231 0.10819248 -0.07436618 0.036171198 0.06408797 -0.10950753 -0.16641068 0.043924946
-0.12210061 -0.09283871 -0.11934253 0.039123457 -0.00070170965 0.025068192 -0.13334817 0.10874057

convs.1.nn.0.bias f4 [64]
00000000: 34d3 a8bd 6615 00be f766 123e 32ef 51bc
00000010: d118 13bd 54fa 00be f0d4 033e 1461 c8bd
00000020: 6893 1bbd 8e2b 8bbd b019 90bd 7ee8 a0bd
00000030: 92ed 463d 7fa3 073e cecd 6ebd 228a c9bd
00000040: 558d a83d cced 07bd a242 b23d 0249 4c3e
00000050: 43af 78bd 09ad 20bd d3f0 af3c e5a6 003d
00000060: 1faf 333e 6b12 d33c 2efc 2ebc d811 3b3c
00000070: 5408 84bd 477d 57bd 487b 893d 5bea 0bbc
00000080: 08be 5ebd 1c6d f8bd 2338 413d c686 a1bd
00000090: 1a72 823d 263c ce3c 0cae bbbd 407a debd
000000a0: 988e bdbd 15e4 723c 55b5 52bd b207 bbbd
000000b0: 2ca0 143d 7bbd 9a3d e9b1 b73d 0ba4 323c
000000c0: 91c4 3fbd 3319 0a3e 4f33 5f3c 54a1 8abd
000000d0: 4122 46bd 9236 e7bd 7f03 8a3b 0c19 63bd
000000e0: 87c4 32bc 1a44 b23d 6f50 eb3c ef44 d63c
000000f0: 9601 f63b f53d ccbd 43ee fe3c f2a3 16bc
-0.08243409 -0.12508163 0.1429709 -0.012813376 -0.03591234 -0.12595493 0.12874198 -0.09784141
-0.037982374 -0.06795417 -0.070361495 -0.07856844 0.04856641 0.13245963 -0.05830174 -0.098408
0.08230082 -0.033185765 0.087041155 0.19949725 -0.060714018 -0.03922752 0.021477139 0.031409163
0.17547272 0.025765618 -0.0106802415 0.0114178285 -0.06446901 -0.05260971 0.06712967 -0.008539761
-0.054380447 -0.12130186 0.047172677 -0.07887034 0.063694194 0.025175165 -0.09164056 -0.10863161
-0.09255713 0.014824887 -0.051442463 -0.09132327 0.036285564 0.07555672 0.089694805 0.010903369
-0.04681832 0.13486175 0.013623073 -0.06769052 -0.04837251 -0.11289705 0.0042118425 -0.05544381
-0.010911114 0.087043956 0.028724877 0.026155917 0.0075075133 -0.09972755 0.031119471 -0.009194361

convs.1.nn.3.weight f4 [64, 64]
00000000: d5ef 483c 346c f8bd e007 cd3c 0e81 c43d
00000010: d13b 7a3d 31da cb3d de33 503c cc29 57bd
00000020: cf56 bb3d 6507 bebd 2bbe c4b9 4c4c aebb
00000030: 1259 da3d 9b93 c63d 41de c93d bdd3 203d
00000040: 1870 17bd dee9 f3bc 9eec 05be 555d 953d
00000050: d517 cf3d 906f c4ba a115 2ebd bd5f bebd
00000060: 9b51 bcbd 8e4d 033e 6470 1ebd 77b1 733d
00000070: 6630 9c3d 3762 92bd 8296 773d 8f5f 91bd
00000080: 5edb 823b 8f0d abbd b95a 5dbc b08c 16bd
00000090: 6d54 b93d 443f b33d 8aeb ccbd 44c2 84bd
000000a0: e04e d2bc 8ceb e33d 2c85 d1bc 27a2 7a3d
000000b0: 1f32 cf3d 594d 14bd 864e 883c 4eda 063e
000000c0: d38b 08be d49f 2dbe 22d1 633d 6440 903d
000000d0: b649 fbbb 94cf 53bd c4f2 aa3d 6448 e03d
000000e0: 76df 83bd 2efb 12be dcdb 48bd 401a dabd
000000f0: d424 64bd eaa4 fabc 6c98 cebd cf35 8f3c
00000100: 02c9 293d 1952 23be 02ce a53d b403 b33c
00000110: 2112 77bd 436e f9bd 2347 e53c eba3 37be
00000120: 4f81 d8bc e6bb 7d3d 5242 063d cdf3 203d
00000130: 5f1a 05be ecfe 1d3e ea67 b13d 29c9 b63d
00000140: a394 9dbc b261 febc a04e 16be 1902 fd3c
00000150: 1ade 8c3d 3f3e bc3d 099e 50bb 304d 82bd
00000160: 015f 1bbe 2c52 abbd 0ea9 c43d e221 08bd
00000170: 2ad5 563d ff60 233d 2a18 203e b21f 9c3c
00000180: 0954 c8bb 1282 75bd 3b93 66bd 7ef3 bc3d
00000190: 64f1 cfbd 23f1 45bd 0c5a b3bd 4984 ab3d
000001a0: 4080 6dbd 53a2 943d 74e8 81bd 4709 9abd
000001b0: 6279 49bd 9c56 cb3d a96c 9b3d 1870 e93d
000001c0: 533d ef3d aafa af3c fb84 9a3c 08b7 903d
000001d0: 71c5 dd3d bc67 d9bd 3f13 c8bc b629 dfbd
000001e0: 1dfd c5bd 05c6 ce3d 0c5a 64bd 3d64 693d
000001f0: 75ae 77bd 1d09 c13c e7f8 e3bd 4672 ef3d
00000200: 7a59 0bbe 9b1d 88bd 30f5 903e 5130 053d
00000210: 6ef4 103d cd0a b03d 1c76 14bd 2770 9abd
00000220: 380e 36bd f95a c13c 4126 f9bd 6c18 e3bd
00000230: 657e cdbd 40f2 e03e b1e2 cabd be15 fdbd
00000240: 572b 06bd a2ce b4bd 7f29 123c 0ed0 9e3e
00000250: ba97 25bc 86c3 233b 018c 7b3c d64e 1f3c
00000260: 2638 893e 0e27 993d cf90 9abd 24b9 74bd
00000270: d2ea c53c dff3 823d 6789 043d cb14 1cbd
00000280: 473b b03c 3910 cdbd fc23 9abc 40ed 8b3b
00000290: fba9 8abd 5d25 4a3d a043 02bd 76e2 e6bd
000002a0: 502b 79bc 2e5c 21be 42a1 aabc 2202 fbbd
000002b0: 29aa cf3d 5eea d53d 1195 6f3c d2e7 333b
000002c0: def2 97bd 9ac1 1f3e 9784 cf3d 42e6 973d
000002d0: 15fc b9bc fa9c a9bd 0201 1ebd ce48 963d
000002e0: 0035 ea3d 1e99 e43e 2777 9a3d 6338 f3bd
000002f0: 17d5 903c 8038 ebbd b07d a7bd 1bcb 66bd
00000300: 238d 9c3d b958 b4bd 3614 883d 0982 783d
00000310: ea19 eb3b b798 9cbd 3b80 5fbd 3a88 1dbe
00000320: 147b a6bd 007e 44bd 8240 e83d 906e 1cbd
00000330: a6f8 fbbd 0965 bdbd 00f0 693b e7c5 cbbd
00000340: 852f 26be 8c7c 11bc 3574 b43b 2b87 0ebd
00000350: 11bc 0d3d 91b2 2cbd 2401 9cbd 6750 e93c
00000360: 6474 e23d cebc 12be ba12 463d 9018 16bd
00000370: 6ee1 d73d 1824 4dbd 3488 383d 1b35 08bd
00000380: 1fa3 dabd e1bf a93d e41b 16bd 9831 873c
00000390: 1e41 d03c 8d50 513d 301b 1a3c d8ec d4bc
000003a0: 3ccc 27bd a9aa d7bc ad04 583d b53e 8b3c
000003b0: 189f 04bd 9621 85bd 0d66 673d a794 8ebc
000003c0: fc3c 8c3d ae7f cdbd c6be f0bd df96 11bd
000003d0: b696 1b3d 2c43 2c3d 9591 e7bd defd d9bd
000003e0: 6dce 1f3d 163a abbd 4413 8b3c e779 8c3d
000003f0: 2b08 353d b645 ddbd 1d2b 803d 4df0 3ebd
0.012264212 -0.12130013 0.02502817 0.09594928 0.0610922 0.09953726 0.012707679 -0.052530095
0.09147417 -0.09278754 -0.0003752572 -0.005319154 0.1066152 0.09696122 0.09856845 0.03926443
-0.036972135 -0.029774603 -0.13078544 0.07293192 0.101119675 -0.0014986861 -0.042501096 -0.092956044
-0.091952525 0.12822554 -0.038681403 0.059495416 0.07626419 -0.07147639 0.06044627 -0.070983045
0.0039934358 -0.083521955 -0.0135103995 -0.036755264 0.09049306 0.08752301 -0.10005863 -0.06482366
-0.025672376 0.111289114 -0.025576197 0.061189797 0.10116982 -0.036206577 0.016639005 0.13169214
-0.13334589 -0.16955501 0.055619366 0.070435315 -0.007668699 -0.051711634 0.08347085 0.109513074
-0.06439106 -0.1435363 -0.0490378 -0.10649538 -0.055699185 -0.030596215 -0.10087666 0.017481713
0.04145146 -0.15949287 0.080959335 0.021852352 -0.060320023 -0.12179234 0.027988022 -0.17933623
-0.026428847 0.061946772 0.03277809 0.039295007 -0.12998341 0.15429276 0.08662398 0.08925087
-0.019235915 -0.031052444 -0.1467843 0.03088479 0.068783 0.0919156 -0.0031832478 -0.063623786
-0.1517296 -0.083652824 0.09602557 -0.03323544 0.052449383 0.039887425 0.15634218 0.019058082
-0.0061135334 -0.059938498 -0.056292754 0.0922613 -0.101534635 -0.04832567 -0.087574095 0.08374841
-0.057983637 0.072575234 -0.06343165 -0.07521301 -0.049188025 0.09928629 0.07589085 0.11398333
0.116816185 0.02148183 0.018862238 0.070661604 0.108286746 -0.10615489 -0.02442324 -0.108966276
-0.09667418 0.10096363 -0.055749938 0.05698036 -0.06046911 0.023563916 -0.11131459 0.11691718
-0.13608351 -0.06646272 0.28312063 0.03251678 0.035389356 0.0859581 -0.03624545 -0.075409226
-0.044447154 0.02360295 -0.121654995 -0.110886425 -0.100338735 0.43934822 -0.09906519 -0.123576626
-0.032756176 -0.088284746 0.008921026 0.31018108 -0.010106975 0.0024988367 0.015353204 0.009723386
0.2680065 0.07478152 -0.07547151 -0.059746876 0.024159823 0.06394171 0.0323576 -0.038105767
0.02151264 -0.1001286 -0.018815987 0.0042702258 -0.067707025 0.04935204 -0.031802773 -0.11273663
-0.01520808 -0.1575782 -0.020828847 -0.12256266 0.10139877 0.104450926 0.014622943 0.0027451408
-0.0741937 0.15601197 0.101327114 0.07416965 -0.02270321 -0.08281894 -0.03857518 0.07338105
0.1143589 0.4464807 0.07542258 -0.11875989 0.017679734 -0.11485386 -0.0817827 -0.05634604
0.07644107 -0.08805985 0.0664448 0.060670886 0.00717472 -0.076463155 -0.05456565 -0.15383998
-0.08128944 -0.047971725 0.11340429 -0.038191378 -0.12303285 -0.092477866 0.003569603 -0.09949856
-0.16229065 -0.008879792 0.005507017 -0.034796875 0.034603182 -0.04216248 -0.07617405 0.028480722
0.11057356 -0.14329836 0.048357703 -0.03664452 0.10541044 -0.05008325 0.04505177 -0.03325377
-0.10675644 0.08288551 -0.036647692 0.01650314 0.025421675 0.05110221 0.009405896 -0.025991842
-0.040966257 -0.026326494 0.052738834 0.016997674 -0.032378286 -0.06500547 0.056493808 -0.017404867
0.06847569 -0.100341186 -0.11755137 -0.035544273 0.037985526 0.042056248 -0.113070644 -0.106441244
0.039015222 -0.083606884 0.01697696 0.068591885 0.044197243 -0.10804312 0.06258223 -0.046615887

convs.1.nn.3.bias f4 [64]
00000000: a898 23bd 94c5 583d 6fa9 bb3c dd83 e4bd
00000010: e573 0d3d 1bd0 973d 8359 223d 2118 473a
00000020: 3629 cc3c 9580 013e 76e1 143d 284c 003e
00000030: 5432 543d a918 9c3c d484 babd ec08 fc3d
00000040: 2145 843d d71d 0c3d b1e7 a5bd b841 11be
00000050: 1a12 d23d 6c6a 92bc 2b30 c9bd ce1f 0c3e
00000060: 0c8b 963d f56d 3ebc 3759 a8bd 1edf 043d
00000070: f072 bd3b 97be 263d 318a 883d ed84 3abd
00000080: abf5 3c3b ecfd 1b3e 8284 983d e203 fabd
00000090: 3762 a33d 061a b73d 1de8 a5bd c727 94bd
000000a0: de94 abbd 4534 6bbd bcb2 5d3c 1497 63bd
000000b0: 6a59 02be 5791 c6bd fd1c 8e3d 0e2a 8abd
000000c0: 4212 acbd 56c1 a6bd 0680 af3c c394 e6bc
000000d0: 4ada 273e 8cf4 743d 885f c63d a45e b13d
000000e0: af57 ff3d e7d0 1bbc 7314 a63d b597 98bd
000000f0: 3ba4 afbd 941f d73c 21e5 fbbb b22e 143e
-0.039940506 0.0529228 0.02290794 -0.111579634 0.034534354 0.0741274 0.039636146 0.0007594843
0.024921995 0.12646706 0.03634783 0.12529051 0.05180581 0.019054728 -0.09107366 0.12306389
0.06458498 0.034208145 -0.08100832 -0.14185226 0.10257359 -0.017873012 -0.098236404 0.13684008
0.0735074 -0.0116228955 -0.082201414 0.032439344 0.005781524 0.040709104 0.06666983 -0.045536924
0.0028832953 0.15233582 0.07447149 -0.12207772 0.07977717 0.089405105 -0.08100913 -0.072341494
-0.083780035 -0.057422895 0.013531383 -0.055564 -0.12729421 -0.0969569 0.06939123 -0.067463025
-0.0840192 -0.08142345 0.021423351 -0.028147107 0.16391864 0.05980353 0.0968619 0.086606294
0.12467896 -0.009510255 0.08109369 -0.07450811 -0.08576246 0.026260175 -0.0076872264 0.14470938

convs.1.lin.weight f4 [64, 2]
00000000: 948e eebe 263c d83e 62d6 62be 5a6e febe
00000010: 1325 e43e bfe7 05bf 62bf e93e 641e 273f
00000020: 3b45 0bbf bf5a c5be 9e20 273f f140 f13d
00000030: fec1 b2bd 9f1d 363f 0d72 09be 1bf6 90bd
00000040: 0c02 223f 19df 1a3f e3f7 913e c8bb 09bf
00000050: 10bc 0ebd 7a23 083f aaf5 c6be 4535 8c3e
00000060: e261 88be 3763 4b3d 9678 f6be b924 86bc
00000070: d08b 1bbf a0e6 993e 5bfc 82be 6ced 253f
00000080: a291 08bf cf70 ac3e 0559 d3be a5cb 833e
00000090: 1baf 27bf 3253 143f bbb0 f5bd a32e 0e3f
000000a0: e8f6 68be 7573 e9be a2f9 12be 7515 69be
000000b0: 71f6 5c3e e98e a13e 5514 c6be ee40 a6be
000000c0: f891 0cbe 1155 933e ea13 2abf 927e 1fbf
000000d0: ab7d 1d3f a7f9 dd3d cc6f c63e 5c77 b8bd
000000e0: 0f1e 07bf 31af 543d 58a0 dd3e ccef c23d
000000f0: 2bad 8d3e a555 0fbd c46e 223f bb95 9abe
00000100: bf57 69be ddbc d43e 84f5 053f d0f8 973e
00000110: f653 233f fa18 94be 975d 983e 6d77 29bf
00000120: ff5d d03e d23e 27bf 6308 debe 2a6d 153f
00000130: c9c8 733c d174 353e ead6 29be cdb5 08bf
00000140: 68fc 113f 3500 b0bd e4c1 debe 8a09 da3e
00000150: f805 2dbd d505 fb3e a835 043f b8bf 53be
00000160: b836 fb3e e6b5 4b3d 258c 82bd c30b 8cbe
00000170: c77d fd3d 58ad 10bd 8f4f c43e d8a7 8ebe
00000180: d7e5 93be 6c0f 9cbd 03b7 173e a36a 0e3e
00000190: 6a82 263e 9d09 163f ec85 edbe 25ed 873d
000001a0: 7d33 103f 49cd 033e 9e57 d2bd eb7f ccbe
000001b0: 9837 1fbe caa3 1fbd 8466 17bf 2442 273f
000001c0: c370 a03e 28b4 02be 2b0d 203f 08ba 1e3f
000001d0: 8107 4e3e 9553 07bf 391f c4be 1163 efbe
000001e0: 9617 c63e 13c6 d2be 5421 e03c 0004 01bf
000001f0: 1086 0dbf 2a51 0cbf f554 0e3f dad0 27bf
-0.46593153 0.4223339 -0.22152093 -0.49693567 0.44559535 -0.5230674 0.45653826 0.6528075
-0.5440251 -0.38545796 0.65284145 0.11779965 -0.08728407 0.7113895 -0.13422413 -0.07078191
0.63284373 0.6049667 0.28509435 -0.53802156 -0.03484732 0.5317913 -0.38859302 0.2738439
-0.2663718 0.049655166 -0.48138875 -0.016374933 -0.6076021 0.30058765 -0.25583157 0.648154
-0.5334722 0.33679816 -0.41278854 0.25741306 -0.65501565 0.57939446 -0.11996599 0.5553991
-0.22750437 -0.455959 -0.1435304 -0.22762091 0.21578385 0.31554344 -0.38687387 -0.32471412
-0.13727558 0.28775838 -0.66436636 -0.62302506 0.6151988 0.10838633 0.3875717 -0.09007141
-0.5278024 0.051924888 0.43286395 0.09518394 0.2767118 -0.034993786 0.63450265 -0.3019236
-0.22787379 0.4155034 0.5232775 0.29682016 0.6379999 -0.28925306 0.29758903 -0.66197854
0.40696713 -0.6533023 -0.43365774 0.58369696 0.014879414 0.17720343 -0.1658589 -0.53402406
0.57025766 -0.085937895 -0.43507302 0.42585403 -0.04224202 0.49027887 0.5164437 -0.20678604
0.49065185 0.04973402 -0.06374387 -0.27352723 0.12377506 -0.035321563 0.38341948 -0.2786243
-0.2888629 -0.07620129 0.14815907 0.13907866 0.16260687 0.5860842 -0.46391237 0.066370286
0.56328565 0.12871279 -0.10270618 -0.39941344 -0.15548551 -0.03897456 -0.591408 0.653353
0.3133603 -0.12764037 0.6252009 0.6200261 0.2012005 -0.5286191 -0.3830507 -0.4675527
0.3868987 -0.41166744 0.027359642 -0.5039673 -0.5528269 -0.54811347 0.55598384 -0.6555306

convs.1.lin.bias f4 [64]
00000000: c092 253f 0796 943e e342 2d3e 254f be3e
00000010: a898 afbe 76fd f9bd e117 333f 3418 073e
00000020: 132d 2cbe 1d48 063d d271 9c3e ad4c 8b3e
00000030: ef85 fa3e b714 34bf b08b 71be e10f 833e
00000040: 5c68 fabd bc83 d73e 8072 febe 01a7 093e
00000050: 20f5 383e 28c6 953e f7a0 133d 4a1b e73e
00000060: cd6b 5a3e 3eaa 95be 0622 c8be d57c f43e
00000070: 77ce f5be 52d0 2fbf 599d 09bf bd8e f73e
00000080: b658 07bf 42d2 63be 35e3 ac3e ba83 98be
00000090: fb1d 2a3f ca7d df3e cedc be3e 70d7 0abf
000000a0: 3161 953e ac4e efbd 9b16 143f f8ed 173f
000000b0: 7a8b 03bd b2e2 f5be 506d 583e 67a2 64be
000000c0: fff3 963e a616 823e 062a 98be 7b17 15bf
000000d0: 0c39 10bf f815 8a3d 311b 1f3e 00ef f53e
000000e0: deb1 a0be 0c2a 20bf dbcd e03e 59d2 e0be
000000f0: 623d 00be 51fe a43e c341 8d3e f0a5 0bbf
0.6467705 0.29020712 0.16920047 0.37169757 -0.34296155 -0.12206547 0.6995831 0.13192827
-0.1681407 0.032783616 0.30555588 0.27206936 0.48930308 -0.7034411 -0.23588443 0.25598052
-0.12226936 0.42092693 -0.49696732 0.13442613 0.18062258 0.29252744 0.03604218 0.45138007
0.21330185 -0.29231447 -0.39088458 0.4775149 -0.48009083 -0.68677247 -0.5375572 0.48351088
-0.5286974 -0.22248176 0.33767095 -0.29788 0.66451997 0.43650657 0.37277836 -0.5423498
0.29175714 -0.11684927 0.57846993 0.59347486 -0.032115437 -0.48024517 0.2113545 -0.22327577
0.2948303 0.25407904 -0.2971956 -0.58238953 -0.56337047 0.067424715 0.15537716 0.48033905
-0.31385702 -0.6256416 0.43907055 -0.43910483 -0.12523416 0.32225278 0.27589235 -0.54550076

convs.2.nn.0.weight f4 [64, 64]
00000000: 38e9 883d afa2 e33d 8270 053d 1de5 103c
00000010: 67e3 c3bd cae1 cbbd c579 843d b562 7d3c
00000020: e906 c33c e15f 713e c142 d03d d21a 86bd
00000030: de2a da3d ecc5 f33d 0051 08bd 875a c7bd
00000040: a534 d9bc 0705 a93c e2d5 493d 73db ccbd
00000050: 9be7 32bc a70b f53d baae 1bbe fa03 e7bb
00000060: 05ed adbd 1f4d adbd 7059 4fbd 90aa f53d
00000070: 768d 25bc 8cf6 feba 1c99 98bd e5cc a73c
00000080: dad2 31bd 4425 a13c 7b98 663d b948 45bd
00000090: 9693 dabd ecd8 40bd 78fb f83d f71e 1bbe
000000a0: 61b4 f23c 57ca 9b3d dee8 4f3d c390 11be
000000b0: 005a d43d 6950 17bc 5f20 383d 520b 643d
000000c0: e04a 82bd 8052 1b3d 9c77 90bd 7f48 c33d
000000d0: 22c4 e73d 0e5c bd3d a957 09bd 4fdc 8c3d
000000e0: 20d9 e13b 442b 023e 8c7e 91bd 7ac5 b3bd
000000f0: 5ad5 cfbd 34b5 7fbd a2ad 64bd 4e94 473e
00000100: f737 c83d dad2 f23d 278a 563d f171 d8bd
00000110: 11cd 11bd 32dc d73d 8451 d13d 312b 353d
00000120: d8ee 57bd 7f86 07be d0a5 133e b6de d83d
00000130: 4644 db3a 33a1 883d a7f3 1f3d 76bd 823d
00000140: d7b9 b0bd 2a9c 193d 113a b53d 3ea1 4bbd
00000150: 2029 113e 4556 573c ccdf 5f3e 8d39 02be
00000160: 8e76 5a3e 4b41 b7bd 32ea 653d 7d29 f93d
00000170: 6344 ad3d 348f d6bd 3ca7 063e daa4 b0bd
00000180: 4e09 f83d 1c52 a73b 2495 f43c 4f7f 2c3d
00000190: b426 0f3e 8677 5fbe 9af1 7e3c 9d93 04bd
000001a0: fd48 6d3d fb62 243e 5f0d 9b3d 6b88 313e
000001b0: af6e 0fbb bc73 64bd bf96 163e 19bf 243e
000001c0: dd6d 40bc 425a adbd 1f43 d63d aeb1 b2bc
000001d0: d208 f9bd 6f1b 803d 6286 fc3d 0f1a ce3d
000001e0: a977 c63b c356 d53d 50cb 8f3d 5e08 96bd
000001f0: 3f9d a4bd b35a bc3c d4ea 833d b6aa 20bd
00000200: 18a5 4ebb 2ae9 943d 4592 03bd 4cc2 adbd
00000210: 4d4a febd b635 733c d005 27bc ff53 c8bb
00000220: 2cdc 493d 3817 bf3c 94f0 11bd 9b5c 03be
00000230: ef43 b93d 748f b33c 87ea 82bd bbd6 cebd
00000240: 0af9 f6bd b261 933d 1654 9bbc 255e 723d
00000250: 59b6 9d3c 547e 6ebc 5abb d3bd 6e16 99bd
00000260: e8d7 82bc 2aa9 e73d 9aba 16bd d9f8 d63b
00000270: 526b fdbd 3516 b7bd 4ba0 573d 7a7f e7bd
00000280: 24bd 96bd 390e d2bd c754 663c 96ea df3d
00000290: 9796 593d 08fc dbbc 98cc 7ebd 214f a13d
000002a0: 36bf c5bd 5a62 ed3d ea5b d93d 3f05 76bc
000002b0: 4021 5fbd d859 f8bd 5076 05be f6e5 7fbd
000002c0: c47e c33d 27ff fcbc fe83 86bd b5f9 8cbd
000002d0: 2c9c 26bd c229 c7bd fc6d 8abd 072e d4bd
000002e0: 07a6 dbbd fbe2 efbc 3eaa 853c 4705 92bd
000002f0: d098 6abd a338 73bd dfc7 9b3c 3d2b 9a3c
00000300: 5423 4e3d fdfd 84bc 2dc8 12be 07d6 563d
00000310: aacb 3c3c 9f2e 143e 8148 d7bd 5af1 b7bd
00000320: ffc9 c33d b7dd 08bd 9267 863c 2a8e fabd
00000330: 62d0 eebd a9a8 713d 2dc2 b2bb caac ba3a
00000340: 9eb2 803d a6ea d6bd f0cf b2bd 2ed3 a83d
00000350: 2686 983b b337 a5bd e056 f2bc 1b3e d3bc
00000360: 22f4 423e 007f b4bc e4fb 8ebd 64af b63d
00000370: 3d7a f23d 08ce 0dbd 2cf1 c8bd cb79 ecbd
00000380: bf43 c5bd 0ccf 1abd 6930 c7be 7b36 2ebd
00000390: 4297 e33d e79e 85bc 36ad 3e3c 729c 423b
000003a0: 1d91 1a3e 60a0 cf3d 7a16 a4ba 0870 d53d
000003b0: 1e8b b6bd 2f6e 693c 1a0f 783d 4b27 f13d
000003c0: 6fac aa3d e10c dcbd 8e96 0bbc 9598 1abe
000003d0: 05f6 7fbe 035a a43c ce67 333d 9480 8b3c
000003e0: 6429 11be 5d20 043e 88ba 123e 8f53 babd
000003f0: fe36 d53d 13f1 cc3d 6e49 45bd cf46 513d
0.06685108 0.11115014 0.032578 0.008843687 -0.09564858 -0.09955175 0.06468538 0.015465428
0.023807006 0.23571731 0.10168982 -0.06548084 0.106527075 0.11902985 -0.033280373 -0.097340636
-0.02651436 0.02063228 0.04927624 -0.10002794 -0.010919477 0.11965113 -0.15203372 -0.0070500346
-0.084924735 -0.08461975 -0.050622404 0.11995423 -0.010104528 -0.0019452139 -0.07451078 0.020483444
-0.043413974 0.01967109 0.05629776 -0.048165057 -0.10672681 -0.047081873 0.12157339 -0.15148531
0.029627027 0.07606953 0.05075919 -0.14215378 0.10368729 -0.00923548 0.044952746 0.05567486
-0.063619375 0.037920475 -0.07054064 0.09535312 0.11316706 0.09246074 -0.033530865 0.06877958
0.0068923384 0.12711817 -0.07104215 -0.087779 -0.101481155 -0.06242867 -0.05582965 0.19490167
0.097762994 0.11856623 0.052377846 -0.105686076 -0.035595957 0.10540046 0.10220626 0.044230644
-0.052718014 -0.132349 0.14418721 0.10589354 0.0016728721 0.06671371 0.039050724 0.06383793
-0.08629196 0.037502445 0.08848966 -0.04971432 0.14175844 0.013143127 0.21862715 -0.12717266
0.21334288 -0.089480005 0.05613155 0.121661164 0.08460309 -0.104765326 0.13149732 -0.08625193
0.1211115 0.0051062237 0.029856272 0.0421136 0.13979608 -0.21822938 0.015560532 -0.032367337
0.057930935 0.16053383 0.0757091 0.17337196 -0.002188604 -0.055774435 0.14705943 0.16088523
-0.011744943 -0.08464481 0.10462021 -0.02181324 -0.121598855 0.062552325 0.12330319 0.10063564
0.006056745 0.10416939 0.07021201 -0.07325815 -0.08037805 0.022992468 0.06441274 -0.039225303
-0.003153151 0.07271035 -0.032121915 -0.08484325 -0.124165155 0.014844349 -0.010194257 -0.0061135287
0.049282238 0.023326501 -0.035629824 -0.12828295 0.090461604 0.02191899 -0.06392389 -0.1009955
-0.12059219 0.07196368 -0.018960994 0.059171814 0.01925199 -0.014556486 -0.10338469 -0.07474981
-0.015972093 0.11311562 -0.03679905 0.0065604267 -0.12373985 -0.089397825 0.0526431 -0.11303611
-0.073602945 -0.10256619 0.014058298 0.109334156 0.05312213 -0.026853576 -0.062206835 0.07876421
-0.09655611 0.11591025 0.10613234 -0.015015899 -0.05447507 -0.12126511 -0.13033414 -0.062475167
0.09545663 -0.030883385 -0.06568144 -0.06883565 -0.04067628 -0.097247615 -0.06759259 -0.103603415
-0.107250266 -0.029283037 0.01631653 -0.07129913 -0.05727464 -0.059380185 0.019016204 0.018819446
0.05032666 -0.016234392 -0.14334174 0.052450206 0.011523167 0.1447091 -0.10511876 -0.08981581
0.09560012 -0.03341457 0.016406808 -0.12234147 -0.116608396 0.058998737 -0.0054552765 0.0014242169
0.062840685 -0.104939744 -0.08731067 0.08243404 0.0046546636 -0.080672644 -0.02958244 -0.02578645
0.19038442 -0.022033215 -0.06981638 0.08920172 0.11839721 -0.034620315 -0.09811625 -0.11546668
-0.09632062 -0.03779511 -0.38904122 -0.042532425 0.111128345 -0.016311122 0.011637976 0.00296953
0.15094419 0.10138011 -0.0012518906 0.10421759 -0.08913253 0.014247461 0.060561277 0.11775073
0.0833367 -0.10744644 -0.008519782 -0.15097268 -0.24996193 0.020062452 0.043800168 0.017029084
-0.14175946 0.1290297 0.14328969 -0.09097969 0.104108796 0.10006919 -0.04816573 0.05109292
